models/best_dynamic_gesture_model.pth (torch, 65817 bytes, 10 tensors)

gru.weight_ih_l0 f4 [96, 63]
-0.11891435 0.1370343 0.13047658 0.083561294 -0.03186567 0.13226125 0.07764109 -0.11750124
0.1107956 -0.13638063 -0.0631274 -0.036625713 0.09828676 0.16981752 0.06024143 0.040744953
0.16993472 0.14769942 -0.058442645 0.16632713 0.12810422 0.18575999 0.12492575 0.06516902
0.17245586 -0.0033238856 0.13461186 0.012083486 -0.026541635 0.20034906 0.1604327 0.020426502
0.2062686 0.035014555 0.07970113 0.110326454 0.1228505 -0.035922445 0.015261346 -0.13025472
-0.09198526 0.111746356 0.19384868 0.10180809 -0.023342716 -0.027640436 0.08008111 0.15235826
0.11203048 0.08424036 0.13241905 0.15414354 0.19270585 0.20553681 0.1447832 -0.123717576
0.12227905 0.12820648 0.06258548 -0.028237872 -0.055486612 -0.09567125 -0.013331145 -0.082471
0.12364121 -0.006344515 0.03673378 0.12219529 -0.031042488 0.011151355 0.011270167 0.062715575
0.043401852 0.11004936 0.011113499 0.18648335 -0.10241942 -0.04973695 -0.10108935 0.14604437
0.03492122 -0.13545038 0.101309046 0.12542965 0.012966881 -0.034352936 0.034533843 0.047105096
0.07258638 0.12243129 -0.08333618 -0.110351644 -0.11081762 -0.051803 0.091813594 -0.17171086
-0.00044632197 0.13702627 0.06799572 -0.027254589 -0.14115764 -0.15792349 0.14932613 0.11296119
-0.1893821 0.1563286 -0.06324801 0.025183976 0.062103525 0.15378146 0.07839146 -0.032515507
0.15648136 0.057676 -0.085509494 0.0485878 -0.18386553 0.02657267 0.088964015 -0.091564044
0.06793329 0.11340525 -0.027619567 0.080136806 -0.10559376 -0.11231241 -0.011915601 0.17145292
-0.10213005 0.018086363 -0.17350762 0.028025454 0.0343216 0.06667634 0.03685798 -0.12694867
-0.083089024 -0.06941704 -0.1376328 0.058489848 0.17361805 0.16602902 0.13587764 -0.15850848
0.049471993 -0.1615724 -0.019326804 0.1637743 0.119867854 -0.13390346 0.05005481 -0.008653777
0.15486676 0.099517874 0.11129868 0.16850021 -0.15398796 0.1245961 -0.053674072 0.14401275
0.07417728 -0.116692245 -0.019099234 0.169481 -0.07782787 0.079474375 -0.073059574 -0.03727416
0.01771427 0.08251863 0.0362269 -0.035970066 -0.01648615 0.09815339 -0.114387736 -0.1565876
0.16968104 0.10785807 0.13724841 0.053508442 0.008845708 -0.13678189 0.039916545 -0.11622489
-0.043318704 -0.01731442 0.032067075 -0.15657866 0.13463582 -0.092965595 0.037111476 0.19186984
-0.15830378 -0.037915416 -0.087018885 0.18515119 0.1154619 0.084294386 0.04545579 0.05620159
-0.08877444 0.11048832 -0.008972444 -0.098158516 -0.097166024 -0.111153156 0.028728334 0.0038375445
0.03372569 -0.13231672 -0.15730809 -0.06965308 0.1526544 0.1682676 0.080819346 0.03440868
-0.09949229 0.18849888 -0.020039255 0.09740387 0.100957945 -0.07720883 0.08337169 0.05435976
0.12786233 -0.1711315 0.11155981 -0.20211767 0.0704261 -0.030988453 -0.10939435 -0.035350442
-0.0078040217 0.02085244 -0.12132425 -0.120326236 -0.14729433 0.16504633 0.04335163 0.12691218
-0.15273014 -0.09708477 0.09040738 -0.045611497 0.060586486 0.017583752 -0.14526492 0.10580092
0.038152542 0.12730275 0.03644895 0.053799316 0.050355975 0.11724412 0.11988782 0.16496779
00000000: 5e89 f3bd b852 0c3e a79b 053e 2f22 ab3d
00000010: 9485 02bd 7e6f 073e 4b02 9f3d 7da4 f0bd
00000020: cee8 e23d 5da7 0bbe f048 81bd d804 16bd
00000030: 924a c93d a5e4 2d3e b8bf 763d 2ee4 263d
00000040: 5e03 2e3e 843e 173e 8e61 6fbd a951 2a3e
00000050: c12d 033e de37 3e3e 12d9 ff3d 5677 853d
00000060: 4598 303e 8cd5 59bb b1d7 093e d0f9 453c
00000070: d86d d9bc 4e28 4d3e 7848 243e 7b55 a73c
00000080: 1338 533e 6c6b 0f3d 593a a33d d6f2 e13d
00000090: 0b99 fb3d 6a23 13bd b90a 7a3c 7e61 05be
000000a0: c562 bcbd 46db e43d 4580 463e c380 d03d
000000b0: 3939 bfbc 326e e2bc 9101 a43d ce03 1c3e
000000c0: 3c70 e53d 3686 ac3d dc98 073e ced7 1d3e
000000d0: af54 453e 3e78 523e 0c42 143e a45f fdbd
000000e0: 706d fa3d 8f48 033e d12c 803d 1c53 e7bc
000000f0: ee45 63bd 4aef c3bd e06a 5abc 8ee6 a8bd
00000100: 9a37 fd3d a6e5 cfbb 2976 163d 8641 fa3d
00000110: d14c febc 2cb4 363c 82a6 383c 0671 803d
00000120: 24c6 313d 8f61 e13d 6515 363c 7ef5 3e3e
00000130: 46c1 d1bd f9b8 4bbd ef07 cfbd a88c 153e
00000140: 8e09 0f3d 81b3 0abe 1e7b cf3d a170 003e
00000150: 0a73 543c aab5 0cbd 5c73 0d3d 46f1 403d
00000160: 2ba8 943d 42bd fa3d 29ac aabd 0b00 e2bd
00000170: 59f4 e2bd 622f 54bd c408 bc3d f9d4 2fbe
00000180: 5200 eab9 9d50 0c3e 5741 8b3d 0445 dfbc
00000190: a18b 10be b2b6 21be f3e8 183e 3258 e73d
000001a0: 62ed 41be 9b14 203e 2c88 81bd a04e ce3c
000001b0: 4460 7e3d e378 1d3e b48b a03d fb2e 05bd
000001c0: a63c 203e ab3d 6c3d 9a1f afbd 0004 473d
000001d0: 3f47 3cbe eeae d93c c432 b63d ee85 bbbd
000001e0: 9c20 8b3d 0341 e83d 6e42 e2bc c41e a43d
000001f0: 8b41 d8bd 0c04 e6bd a739 43bc 5b91 2f3e
00000200: 8f29 d1bd da29 943c fbab 31be a395 e53c
00000210: ce94 0c3d 9b8d 883d 65f8 163d d5fe 01be
00000220: 942a aabd 852a 8ebd 9def 0cbe 0d93 6f3d
00000230: eec8 313e 8303 2a3e 8223 0b3e 0c50 22be
00000240: 25a3 4a3d 3c73 25be 3f53 9ebc 73b4 273e
00000250: 477d f53d fd1d 09be 4606 4d3d 92c8 0dbc
00000260: 6495 1e3e 07d0 cb3d 90f0 e33d 528b 2c3e
00000270: 05af 1dbe 3d2c ff3d 58d9 5bbd 1478 133e
00000280: 42ea 973d 58fc eebd ff75 9cbc 6d8c 2d3e
00000290: 3864 9fbd 76c3 a23d 42a0 95bd caac 18bd
000002a0: 841d 913c 87ff a83d a862 143d 5955 13bd
000002b0: f60d 87bc a504 c93d 1e44 eabd 8058 20be
000002c0: dec0 2d3e b1e4 dc3d d98a 0c3e ab2b 5b3d
000002d0: 97ed 103c 8d10 0cbe 887f 233d 5107 eebd
000002e0: f46e 31bd f8d6 8dbc c458 033d 2856 20be
000002f0: f9dd 093e bf64 bebd 3402 183d 8779 443e
00000300: 631a 22be 324d 1bbd f536 b2bd 4698 3d3e
00000310: 4a77 ec3d 89a2 ac3d da2f 3a3d a333 663d
00000320: 60cf b5bd b347 e23d 2801 13bc 5507 c9bd
00000330: fbfe c6bd 44a4 e3bd af57 eb3c 507f 7b3b
00000340: f323 0a3d 097e 07be 5f15 21be 46a6 8ebd
00000350: 6f51 1c3e 574e 2c3e 9d84 a53d 1ef0 0c3d
00000360: 9dc2 cbbd da05 413e 5d29 a4bc ae7b c73d
00000370: 0ac3 ce3d aa1f 9ebd c7be aa3d 57a8 5e3d
00000380: 58ee 023e 193d 2fbe 7879 e43d eff7 4ebe
00000390: 8f3b 903d 7fdb fdbc 250a e0bd a0cb 10bd
000003a0: e1b8 ffbb bcd2 aa3c d978 f8bd 9a6d f6bd
000003b0: 53d4 16be e801 293e 7b91 313d 44f5 013e
000003c0: 4a65 1cbe 61d4 c6bd 8127 b93d 1fd3 3abd
000003d0: 8929 783d cd0b 903c 54c0 14be 27ae d83d
000003e0: d745 1c3d a75b 023e 7f4b 153d ac5c 5c3d
000003f0: 1142 4e3d af1d f03d bf87 f53d 51ed 283e

gru.weight_hh_l0 f4 [96, 32]
-0.11869985 -0.010968963 -0.06632015 -0.14321733 0.120544545 -0.09743821 -0.017056081 -0.03999689
0.10179379 0.02023983 0.1394083 0.011407835 0.0019868936 -0.15450132 0.1297551 -0.14101435
0.12673023 -0.07424174 0.11235987 0.01758795 -0.04596656 -0.05813374 0.0845557 0.054216832
0.08169285 0.11673195 -0.0611956 -0.03209123 0.112087734 0.038819794 0.050261643 -0.02743957
-0.08825442 0.011719297 -0.11539594 -0.19707862 0.034730878 -0.07742299 0.027463885 -0.03877832
0.057325717 0.11315893 0.017276369 0.056143176 -0.118797235 -0.09727587 0.15423448 -0.079799674
-0.18387169 0.13040742 -0.05031556 -0.06267188 0.012949303 0.13217478 -0.13780053 -0.06703628
-0.12085687 -0.18345484 -0.044439025 -0.0136174625 -0.16204613 0.13244931 0.084947154 0.084366
-0.120013 -0.09004203 -0.03941561 -0.047138505 -0.032545622 0.08799025 -0.019124584 0.112172395
0.13744135 -0.0761244 -0.15780547 0.07325469 0.10874232 -0.13660891 0.088817164 -0.11081169
-0.17030133 -0.053195976 -0.117386736 0.0016394337 0.11205233 -0.05681081 -0.16373028 0.17603208
0.121552214 0.07589076 0.14196527 0.14520153 0.08541606 0.010876857 -0.07605773 -0.054629702
0.05933441 -0.11779633 0.033085022 -0.0853602 -0.123141676 0.04482818 0.013855938 -0.08075646
-0.163923 -0.1108464 0.1163236 0.085814804 -0.12425913 -0.0039654044 0.004803243 -0.1284129
0.027536606 0.066865884 0.107416205 0.1815695 -0.18197861 0.13461304 0.07215129 0.07370369
0.122074895 0.024964936 -0.17487875 0.17668785 -0.06731889 -0.057190157 0.12437698 -0.15098484
-0.02500847 -0.100056715 -0.11626434 -0.021048399 0.06918079 0.04311688 -0.03487757 -0.030114798
0.031499244 0.051141057 -0.19555438 -0.10623178 0.14630869 0.10751127 -0.022754753 0.15205306
0.0815428 0.010466522 0.0037256498 0.09936001 0.050084155 0.04274741 0.07747148 -0.116436176
0.105107844 -0.21451917 -0.046567604 0.06971449 -0.057660993 0.07939925 0.19499983 -0.10812629
0.052179325 0.0032781223 -0.07514395 0.12039486 -0.077313 -0.17420438 -0.112526156 0.05048463
-0.061550796 0.040053327 0.07385577 -0.03865313 -0.11099674 -0.044044808 -0.09020924 -0.13565171
0.029112607 0.021075461 -0.1529769 -0.049481634 -0.03806065 0.09966772 0.13322109 0.10985731
0.08112546 0.12533015 0.021187825 0.1160824 0.14059536 -0.09720638 -0.15617816 -0.12839836
-0.034846537 -0.04367158 -0.11476477 -0.05669597 -0.035360564 -0.08904658 0.072344005 -0.1433457
-0.027267354 0.12416719 -0.12791385 0.13869654 0.08650902 -0.08756275 -0.106623836 -0.1582371
0.110531524 0.035116863 0.14542055 -0.14921859 -0.050293054 -0.15167694 0.15426114 -0.0005678968
0.055582695 0.09365955 -0.07853209 0.11356479 0.1736712 0.1654311 0.09847365 0.018299501
-0.16886184 -0.17042609 -0.12855315 0.12878145 -0.07727654 -0.070754245 0.028123034 -0.07011564
-0.053757228 -0.05047507 0.14057583 -0.17635985 -0.018980969 0.1307289 -0.13343714 0.06654075
0.06924369 -0.18164062 -0.16708575 -0.1159106 0.0074650645 0.052198004 -0.124054626 -0.1783061
0.035700463 0.07006059 -0.12613045 0.13678026 0.03570343 0.095463164 0.14720383 -0.045780517
00000000: e818 f3bd 2ab7 33bc dcd2 87bd 90a7 12be
00000010: 0fe0 f63d af8d c7bd 32b9 8bbc c7d3 23bd
00000020: 4379 d03d 00ce a53c 0dc1 0e3e eee7 3a3c
00000030: 8b36 023b 9835 1ebe 85de 043e 1166 10be
00000040: 92c5 013e 0e0c 98bd ee1c e63d 9b14 903c
00000050: 6e47 3cbd a51d 6ebd 8a2b ad3d 7812 5e3d
00000060: 954e a73d 2911 ef3d 3da8 7abd 1872 03bd
00000070: 418e e53d 8101 1f3d 27df 4d3d f3c8 e0bc
00000080: bcbe b4bd 4b02 403c b554 ecbd face 49be
00000090: f741 0e3d f28f 9ebd f1fb e03c 04d6 1ebd
000000a0: 5fce 6a3d debf e73d 2c87 8d3c 63f6 653d
000000b0: f74b f3bd 9238 c7bd a5ef 1d3e 036e a3bd
000000c0: dc48 3cbe 8689 053e b017 4ebd 1d5a 80bd
000000d0: 5029 543c d358 073e 951b 0dbe 514a 89bd
000000e0: cf83 f7bd 96db 3bbe b205 36bd c71b 5fbc
000000f0: 6cef 25be cba0 073e c6f8 ad3d 15c8 ac3d
00000100: 60c9 f5bd f567 b8bd 4372 21bd 4e14 41bd
00000110: 8f4e 05bd 3b34 b43d 29ab 9cbc a4ba e53d
00000120: 6dbd 0c3e 1ce7 9bbd c297 21be 8e06 963d
00000130: 4bb4 de3d 35e3 0bbe c6e5 b53d 3df1 e2bd
00000140: 7963 2ebe 06e4 59bd 7568 f0bd 44e2 d63a
00000150: b17b e53d 74b2 68bd e9a8 27be c141 343e
00000160: 5ef0 f83d 9d6c 9b3d 585f 113e b6af 143e
00000170: 9eee ae3d d834 323c 28c4 9bbd 65c3 5fbd
00000180: a308 733d 343f f1bd 2984 073d 54d1 aebd
00000190: b431 fcbd c19d 373d 0404 633c a563 a5bd
000001a0: 6edb 27be 7003 e3bd 113b ee3d acbf af3d
000001b0: 927b febd 39f0 81bb 8664 9d3b ac7e 03be
000001c0: 7394 e13c fbf0 883d 07fd db3d 5bed 393e
000001d0: 9a58 3abe 00d8 093e 0ec4 933d f6f1 963d
000001e0: 6702 fa3d 4483 cc3c 6a13 33be a9ed 343e
000001f0: 7cde 89bd 3a40 6abd 5cb9 fe3d c59b 1abe
00000200: 90de ccbc 89ea ccbd 001c eebd b16d acbc
00000210: a8ae 8d3d 539b 303d c8db 0ebd 4fb3 f6bc
00000220: 5a05 013d 4979 513d 683f 48be 0c90 d9bd
00000230: f2d1 153e de2e dc3d 2d68 babc ccb3 1b3e
00000240: e9ff a63d c67b 2b3c 082a 743b 437d cb3d
00000250: 0b25 4d3d e817 2f3d 5ea9 9e3d 1776 eebd
00000260: c842 d73d eaaa 5bbe acbd 3ebd 78c6 8e3d
00000270: ef2d 6cbd 139c a23d 09ae 473e 5171 ddbd
00000280: fdb9 553d c4d5 563b 12e5 99bd 9591 f63d
00000290: 4756 9ebd a262 32be 1d74 e6bd f9c8 4e3d
000002a0: b01c 7cbd f50e 243d b241 973d bf52 1ebd
000002b0: 4252 e3bd 5468 34bd 9fbf b8bd 48e8 0abe
000002c0: 907d ee3c 72a6 ac3c faa5 1cbe 41ad 4abd
000002d0: 7ce5 1bbd 971e cc3d 1c6b 083e dffc e03d
000002e0: 1b25 a63d 8c56 003e 1792 ad3c 9cbc ed3d
000002f0: 3bf8 0f3e 2314 c7bd 2bed 1fbe dc7a 03be
00000300: 3ebb 0ebd f8e0 32bd cb09 ebbd 093a 68bd
00000310: 3dd6 10bd 0e5e b6bd 1829 943d 37c9 12be
00000320: c95f dfbc 5e4b fe3d d9fb 02be 7706 0e3e
00000330: a42b b13d 1954 b3bd 995d dabd e808 22be
00000340: 5a5e e23d b3d6 0f3d 20e9 143e c2cc 18be
00000350: 1700 4ebd 3351 1bbe a2f6 1d3e e9de 14ba
00000360: aeaa 633d 94d0 bf3d 6fd5 a0bd a894 e83d
00000370: ddd6 313e c566 293e 8eac c93d d6e8 953c
00000380: 1eea 2cbe 2d84 2ebe 70a3 03be 49df 033e
00000390: 2a43 9ebd 9ae7 90bd 4762 e63c ca98 8fbd
000003a0: 8a30 5cbd f2be 4ebd 1cf3 0f3e ad97 34be
000003b0: fa7d 9bbc ccdd 053e bfa3 08be 8446 883d
000003c0: a3cf 8d3d 0000 3abe 8718 2bbe 8962 edbd
000003d0: 809d f43b 93cd 553d 5a10 febd e095 36be
000003e0: a63a 123d ed7b 8f3d 5728 01be 2010 0c3e
000003f0: c33d 123d 3182 c33d 9abc 163e 5a84 3bbd

gru.bias_ih_l0 f4 [96]
-0.08396883 -0.107866265 -0.055806637 -0.022860661 -0.10810094 -0.08282659 0.071818225 -0.12410879
-0.019520037 0.17854102 -0.022194965 -0.1366174 -0.11780838 0.0061352565 0.075108565 0.17669204
0.09128562 -0.065168396 -0.0036803153 0.150097 -0.024711031 0.087078 -0.06588795 0.1621918
-0.09214931 -0.0719788 -0.10778459 0.12191026 0.13731441 -0.060308106 0.0884531 0.14593565
-0.05738698 -0.072846234 0.13781212 -0.026275745 0.003889058 0.12558372 0.20042153 -0.0106832925
-0.0930257 0.06925176 0.07875538 0.12625493 -0.07433724 -0.04855029 -0.023942174 -0.024766468
-0.0856217 0.08810739 0.110554576 0.09350636 -0.06678571 0.20357421 -0.10947418 -0.120692156
0.13954166 0.028658452 0.16351303 0.027624208 0.119418725 -0.15067758 0.14462511 0.06588694
0.09664408 -0.13826579 0.07795266 0.13187186 -0.008230553 0.056012552 0.060212787 0.10452198
-0.061369594 0.10118675 -0.17472601 0.043698207 0.049984735 0.14120445 -0.07482595 -0.07723718
-0.018910004 0.07176264 0.022343384 -0.0039590565 -0.19163945 -0.044777773 -0.0016188889 0.05283508
0.0063915728 -0.06678068 0.12083119 0.048309624 -0.123947576 0.038965434 -0.034920305 0.15371904
00000000: daf7 abbd fde8 dcbd 8095 64bd 4846 bbbc
00000010: 0764 ddbd fda0 a9bd 6f15 933d c02c febd
00000020: 7ce8 9fbc 75d3 363e 37d2 b5bc 6fe5 0bbe
00000030: 8545 f1bd 430a c93b 85d2 993d c2ee 343e
00000040: f5f3 ba3d 0277 85bd 7231 71bb 07b3 193e
00000050: ca6e cabc f355 b23d 43f0 86bd 9b15 263e
00000060: c7b8 bcbd 9f69 93bd 2bbe dcbd 16ac f93d
00000070: 269c 0c3e a205 77bd e626 b53d 2870 153e
00000080: 9c0e 6bbd 6830 95bd 9f1e 0d3e 3b40 d7bc
00000090: 91df 7e3b 0599 003e 4d3b 4d3e fa08 2fbc
000000a0: 4284 bebd ded3 8d3d 804a a13d f948 013e
000000b0: 1f3e 98bd abdc 46bd 6122 c4bc 0ce3 cabc
000000c0: 6e5a afbd a671 b43d 706a e23d 4380 bf3d
000000d0: f2c6 88bd c275 503e 0034 e0bd 732d f7bd
000000e0: 02e4 0e3e 21c5 ea3c f66f 273e 2a4c e23c
000000f0: ce91 f43d 394b 1abe 9b18 143e bbef 863d
00000100: 55ed c53d 8c95 0dbe a5a5 9f3d 6b09 073e
00000110: 71d9 06bc 6b6d 653d afa1 763d 9f0f d63d
00000120: af5e 7bbd 003b cf3d 60eb 32be e4fc 323d
00000130: cbbc 4c3d e697 103e 593e 99bd 872e 9ebd
00000140: 27e9 9abc 4af8 923d 7909 b73c f9ba 81bb
00000150: 223d 44be e668 37bd e630 d4ba 9969 583d
00000160: 6670 d13b 4fc4 88bd 5876 f73d 50e0 453d
00000170: 3ad8 fdbd 389a 1f3d 9808 0fbd 8668 1d3e

gru.bias_hh_l0 f4 [96]
0.07307709 -0.12114996 -0.09410391 -0.08468099 0.07115694 0.060759712 0.04752826 0.040491506
-0.09921334 0.18965551 0.20011035 -0.019741038 -0.20454878 0.058390778 -0.028364256 -0.11123746
0.14478195 -0.007798324 0.107847564 -0.088178836 0.16129746 -0.027769767 0.12416086 -0.095772564
0.16302258 -0.058983713 -0.08814892 -0.14291199 0.1983181 0.056006126 0.06046065 -0.1180854
-0.084177904 0.18015051 -0.1505939 0.10691703 -0.08102557 -0.16196416 -0.081805795 -0.118811786
0.081289575 0.00412943 -0.057685737 -0.09526853 0.20816934 0.029792704 -0.05772862 0.01770955
0.07814409 -0.10610134 -0.06347083 0.11135711 -0.017654771 0.19591454 0.021068446 0.056959555
-0.09972243 -0.13529332 0.008543621 -0.11397447 0.07863164 -0.041120622 -0.06664393 0.10264462
-0.10814496 -0.09017568 -0.07836696 0.0031972942 0.059837986 -0.12325367 -0.07770848 -0.080929466
-0.082475826 -0.12402185 -0.049561195 -0.12059503 0.1755501 0.16525754 0.10600314 0.0026269476
0.0488624 -0.16680905 -0.073844805 0.096510775 -0.1769099 -0.05057885 -0.18618676 0.020885557
-0.0394742 -0.1621291 0.093778044 -0.052183837 0.19252482 0.024786884 0.002179654 0.124257185
00000000: 71a9 953d 781d f8bd 8db9 c0bd 3a6d adbd
00000010: bbba 913d 2ddf 783d feac 423d 6cda 253d
00000020: 5d30 cbbd 0e35 423e bae9 4c3e f5b7 a1bc
00000030: 3c75 51be 2b2b 6f3d 285c e8bc 77d0 e3bd
00000040: b841 143e 1589 ffbb 2fdf dc3d 1b97 b4bd
00000050: 292b 253e 6c7d e3bc 0d48 fe3d 6824 c4bd
00000060: 64ef 263e e898 71bd 6c87 b4bd 8557 12be
00000070: e613 4b3e ae66 653d 96a5 773d c2d6 f1bd
00000080: 7765 acbd 6079 383e 4a35 1abe 51f7 da3d
00000090: bcf0 a5bd efd9 25be cc89 a7bd 9853 f3bd
000000a0: 267b a63d 2b50 873b e147 6cbd 261c c3bd
000000b0: 582a 553e d40f f43c d874 6cbd 9e13 913c
000000c0: 020a a03d a94b d9bd fffc 81bd 320f e43d
000000d0: bda0 90bc d29d 483e bc97 ac3c 6c4e 693d
000000e0: 463b ccbd 558a 0abe 8bfa 0b3c 726b e9bd
000000f0: a009 a13d 196e 28bd 9d7c 88bd 5837 d23d
00000100: 1b7b ddbd 07ae b8bd db7e a0bd b289 513b
00000110: ad18 753d 6c6c fcbd a025 9fbd 59be a5bd
00000120: 16e9 a8bd 2bff fdbd ae00 4bbd 87fa f6bd
00000130: 68c3 333e 4639 293e 2d18 d93d de28 2c3b
00000140: f123 483d fecf 2abe f23b 97bd 71a7 c53d
00000150: de27 35be c52b 4fbd bea7 3ebe 3018 ab3c
00000160: b3af 21bd 2c05 26be b40e c03d b8be 55bd
00000170: 3a25 453e dd0d cb3c 87d8 0e3b 8d7a fe3d

gru.weight_ih_l1 f4 [96, 32]
0.11097227 -0.08751764 0.043940786 -0.1587352 -0.15687558 -0.1903446 0.18112294 0.023713818
-0.022387281 -0.11840194 -0.035750538 -0.19841419 -0.052841105 -0.07214034 -0.17145824 0.15515234
-0.13763145 -0.084246226 -0.14470229 -0.115795225 -0.17839886 0.04924603 -0.1850305 0.09984632
-0.10174432 0.031531595 0.16895567 -0.023286523 0.09306388 -0.12073922 -0.0635847 -0.045375697
-0.11491565 0.110866524 0.15877926 -0.05223751 -0.15362254 -0.038712636 0.045786567 -0.08934
-0.0033197696 0.021498505 0.13406697 -0.023688592 -0.040966887 0.11060476 -0.06665176 -0.14479187
0.13847584 0.20743303 -0.01012771 0.08055518 -0.004494019 0.16361932 0.20829092 0.12420611
-0.004432779 -0.0040038675 -0.09206403 -0.030922275 0.0720371 0.08914713 -0.052495804 -0.21145652
0.117879085 0.08399504 0.0009562006 -0.1924926 -0.006608438 -0.15645137 0.004602211 -0.06363167
-0.052842718 -0.1200709 -0.109571554 -0.10586575 0.13504575 0.08331299 0.09817742 0.05765022
-0.13885462 -0.14819162 0.06040995 -0.0069818 0.07982561 -0.12588298 0.09241576 0.068516105
-0.07766493 0.0029864085 0.067914955 0.08803108 -0.06613229 -0.04613817 0.11222795 -0.031290896
-0.09690302 0.110547975 -0.17649081 0.038327754 0.014957106 0.06577524 0.06673181 0.042680033
0.17218298 -0.18329377 0.021278659 -0.07729934 0.063402474 -0.08205301 0.067368865 0.16594733
-0.15224853 -0.1740107 -0.013419238 -0.05140772 -0.01740189 -0.058196537 -0.093507975 0.06732762
-0.13291958 -0.031811915 -0.15069896 -0.048975278 0.05290944 -0.053310655 -0.05310554 -0.12301673
-0.02482207 0.11400428 0.0638873 0.094749175 0.04076326 0.17101686 -0.19614407 -0.044115286
0.11723924 0.09990376 -0.017597616 0.11012738 0.14346221 -0.044143565 -0.08726156 -0.033716768
0.019150265 -0.005053195 -0.20011605 -0.028234234 -0.00028943384 0.095987104 0.13262133 0.17523575
-0.06717923 -0.02270377 -0.09726736 -0.1600562 -0.0090596 -0.11334379 -0.13348518 -0.15594111
-0.08954394 -0.02879746 -0.09303994 0.10567548 -0.054419447 -0.03595026 -0.0682408 0.10935793
0.04486949 -0.10524509 -0.10891059 -0.044650048 0.0712171 -0.17958839 -0.13943486 -0.101699024
0.15021867 -0.13837557 0.10653223 -0.20660956 0.0008883289 -0.071077965 -0.11297576 -0.069171354
-0.034270708 -0.1589307 0.10484693 -0.13411783 0.06298324 0.050883766 -0.018703919 -0.076086864
0.02017204 -0.056307495 -0.04509048 0.02604813 0.09799491 0.095615394 -0.18452935 0.083964
-0.029897347 0.17339171 0.010986897 -0.05275 0.064762205 -0.10246413 0.03435026 0.035983566
-0.114387944 0.101765014 -0.13973871 -0.13810143 -0.065685935 0.11958897 0.023385406 -0.063088104
-0.07068811 -0.12590262 0.0020807057 0.05772312 0.009508669 -0.10907968 0.09211499 0.015438782
-0.038982004 0.03240195 0.1119216 -0.022821872 0.16476682 0.17991737 -0.061303016 0.09156329
-0.15204886 -0.033367995 0.11097584 0.11468378 0.16444246 0.00778818 0.049276028 -0.04944128
-0.17568883 -0.049941193 0.10134884 -0.12540649 0.08055812 -0.09434476 -0.059621055 0.047810495
-0.048740104 -0.12199743 -0.16059317 -0.012811029 -0.0050181397 -0.096114 0.17186677 0.041098904
00000000: 6e45 e33d 733c b3bd 41fb 333d 7b8b 22be
00000010: fea3 20be b2e9 42be 4b78 393e 7b43 c23c
00000020: 8865 b7bc b77c f2bd 286f 12bd 172d 4bbe
00000030: ea6f 58bd 51be 93bd c092 2fbe 41e0 1e3e
00000040: 42ef 0cbe 4989 acbd d62c 14be 0c26 edbd
00000050: 31ae 36be 35b6 493d a378 3dbe 3a7c cc3d
00000060: 535f d0bd 4627 013d b702 2d3e 61c3 bebc
00000070: 4798 be3d 2046 f7bd b238 82bd dedb 39bd
00000080: e558 ebbd fd0d e33d 0897 223e 00f7 55bd
00000090: 3a4f 1dbe 2491 1ebd b28a 3b3d e4f7 b6bd
000000a0: 7e90 59bb a21d b03c da48 093e 940e c2bc
000000b0: e5cc 27bd c084 e23d b880 88bd 5244 14be
000000c0: 9ccc 0d3e 5369 543e b2ee 25bc 1dfa a43d
000000d0: 9042 93bb d38b 273e 374a 553e c65f fe3d
000000e0: d840 91bb e032 83bb 118c bcbd b650 fdbc
000000f0: 3088 933d c592 b63d d705 57bd 0f88 58be
00000100: 976a f13d 9705 ac3d 89a9 7a3a c81c 45be
00000110: 998b d8bb ca34 20be 25ce 963b 5251 82bd
00000120: 9b71 58bd bbe7 f5bd 0d67 e0bd 24d0 d8bd
00000130: 6f49 0a3e 00a0 aa3d 3e11 c93d a322 6c3d
00000140: e82f 0ebe 8bbf 17be 6c70 773d 95c7 e4bb
00000150: 9c7b a33d 78e7 00be 7944 bd3d 2c52 8c3d
00000160: ca0e 9fbd 9fb7 433b ff16 8b3d a449 b43d
00000170: 5e70 87bd 61fb 3cbd c4d7 e53d e22a 00bd
00000180: 1775 c6bd fa66 e23d 02ba 34be 90fd 1c3d
00000190: a60e 753c 2bb5 863d b0aa 883d 42d1 2e3d
000001a0: bc50 303e 5db1 3bbe 9550 ae3c 1e4f 9ebd
000001b0: 28d9 813d 690b a8bd b0f8 893d 19ee 293e
000001c0: 0ae7 1bbe dc2f 32be 5ddc 5bbc e790 52bd
000001d0: 698e 8ebc 7e5f 6ebd 1c81 bfbd 10e3 893d
000001e0: 121c 08be 364d 02bd d450 1abe 4d9a 48bd
000001f0: 92b7 583d 465c 5abd 3285 59bd 32f0 fbbd
00000200: a757 cbbc 137b e93d 58d7 823d db0b c23d
00000210: 60f7 263d 0b1f 2f3e fed9 48be 3bb2 34bd
00000220: 201b f03d 589a cc3d e028 90bc 778a e13d
00000230: c2e7 123e e2cf 34bd 30b6 b2bd 981a 0abd
00000240: 04e1 9c3c 4695 a5bb 39eb 4cbe 7b4b e7bc
00000250: 27bf 97b9 e394 c43d e3cd 073e 0071 333e
00000260: 4495 89bd 42fd b9bc 1c34 c7bd c6e5 23be
00000270: b76e 14bc ca20 e8bd 57b0 08be 07af 1fbe
00000280: d062 b7bd a7e8 ebbc b98b bebd 636c d83d
00000290: ede6 5ebd 9440 13bd d5c1 8bbd 0df7 df3d
000002a0: 12c9 373d bd8a d7bd 840c dfbd f8e2 36bd
000002b0: 45da 913d 05e6 37be 03c8 0ebe 9447 d0bd
000002c0: ecd2 193e 53b2 0dbe 922d da3d 7591 53be
000002d0: bede 683a 5391 91bd d65f e7bd b6a9 8dbd
000002e0: 715f 0cbd bbbe 22be fdb9 d63d 2f56 09be
000002f0: 5bfd 803d 7f6b 503d f638 99bc 6ed3 9bbd
00000300: d63f a53c b0a2 66bd ccb0 38bd e362 d53c
00000310: 8eb1 c83d 01d2 c33d 43f5 3cbe 51f5 ab3d
00000320: 48eb f4bc 998d 313e 6302 343c 6210 58bd
00000330: 0ca2 843d b7d8 d1bd dcb2 0c3d 8163 133d
00000340: 3a44 eabd 2d6a d03d aa17 0fbe 766a 0dbe
00000350: 5986 86bd 10eb f43d c092 bf3c 5634 81bd
00000360: eec4 90bd 9eec 00be 735c 083b 146f 6c3d
00000370: 40ca 1b3c 2b65 dfbd c9a6 bc3d f2f2 7c3c
00000380: 98ab 1fbd e8b7 043d 2737 e53d eff4 babc
00000390: a2b8 283e 423c 383e df18 7bbd 8985 bb3d
000003a0: b2b2 1bbe e1ac 08bd 4d47 e33d 54df ea3d
000003b0: 9b63 283e fd33 ff3b a9d5 493d f182 4abd
000003c0: c6e7 33be 238f 4cbd fb8f cf3d 8f6a 00be
000003d0: a8fb a43d d337 c1bd 3535 74bd f0d4 433d
000003e0: b4a3 47bd cad9 f9bd 8972 24be 5ae5 51bc
000003f0: 356f a4bb 6bd7 c4bd d8fd 2f3e 5357 283d

gru.weight_hh_l1 f4 [96, 32]
0.065153144 -0.14690027 0.0030530507 0.15283376 -0.18863875 0.08157535 -0.18853542 -0.15408026
0.19398789 -0.031829663 0.058157455 -0.073860794 0.08640901 -0.122414276 -0.036406796 0.004631953
-0.066039234 -0.12526393 -0.07735498 -0.010178171 -0.0845177 -0.14917621 0.023949811 0.15947899
-0.058331523 -0.020005845 -0.058545824 -0.0763692 0.0876959 -0.1308398 -0.0847676 -0.09757907
0.039791472 -0.03344858 0.05274248 -0.02857171 0.010151542 -0.11055398 -0.11598836 0.033937357
-0.0792841 0.14690143 -0.052371215 0.1269666 -0.06789835 0.06432861 -0.15290654 -0.009318183
-0.06596294 0.03642286 0.106430836 -0.15794353 -0.043126587 -0.12648164 -0.074014924 -0.09662406
0.02365925 0.010922773 0.054122828 0.0017349219 0.13980779 0.08083451 -0.16123253 0.051685646
-0.09165585 -0.02239411 -0.05263129 -0.0053132772 0.049560107 -0.17088243 0.03976234 0.0460009
0.016739525 0.12576449 0.19710048 -0.16803242 0.1999403 0.0035923405 -0.104298696 0.0029032386
0.09767395 0.11225785 0.1658382 0.016623985 -0.015214695 0.002922165 -0.05689952 -0.043761954
-0.08724508 0.058489177 -0.030800382 -0.081615895 0.13297403 -0.12122489 -0.022013731 -0.016548963
-0.09758658 -0.062561676 0.034530442 -0.12529258 -0.07449697 0.011979954 0.067575864 -0.014194488
-0.003537373 0.033186596 0.09151835 -0.07738635 0.08937087 0.02662796 -0.07175306 0.012363381
0.05079872 -0.06330752 0.10577542 -0.06440645 -0.14941129 0.122292876 -0.12176916 -0.09280109
-0.046767484 -0.11130559 0.16482481 -0.0031018301 -0.08414225 -0.04321503 -0.14411622 0.15397973
-0.100405715 -0.08791973 0.018368084 0.0054548965 -0.012599617 0.006509245 0.09424443 -0.18617839
-0.07252423 0.11219386 0.07550498 -0.0009565803 0.066623196 0.043007024 0.13123164 -0.13516586
-0.10578769 0.09239151 0.06085464 -0.16961586 -0.05378058 0.021656927 0.11338559 0.07199005
0.1575743 -0.075059146 0.019213714 0.051334422 -0.1756532 0.20725079 0.010124771 -0.05481898
-0.021104652 0.03834409 -0.00026000754 0.17548653 0.06426506 0.05806189 0.08637759 -0.006662041
0.12833181 -0.15158339 -0.057340223 -0.12362945 -0.09781013 -0.099329434 0.06105752 0.07749337
0.14575748 0.05279481 -0.022396004 0.017782122 -0.10596794 -0.009348531 0.11069801 0.06896128
-0.105736 -0.2095976 -0.015481294 0.14351991 -0.08441869 -0.0004161787 0.087331325 0.21762225
-0.16617264 -0.015783539 0.18135098 0.12596194 0.04986912 -0.17581116 0.17451252 0.028338654
-0.11822891 0.0039913845 0.13799661 -0.13941085 0.001567533 0.13835639 -0.054008838 -0.14086407
0.08128713 -0.08796492 0.13233931 0.0014914102 0.07974629 0.119327836 0.16688398 0.09566921
-0.012369742 0.1252104 -0.016363695 -0.07432318 0.1599851 0.22052382 0.058697596 -0.11387369
0.077773005 -0.07213034 0.2091037 -0.15619498 0.12561232 0.08229653 0.08549165 -0.20801039
-0.050870467 0.11152019 0.08737401 -0.17970502 -0.027885936 -0.18855344 -0.10210751 0.14121886
0.1631239 0.05428017 -0.13360985 0.10834608 0.04559014 0.13936095 -0.16066167 0.12033828
0.09875002 -0.091575176 0.14399429 -0.05318928 -0.057064515 -0.118238844 -0.14608645 -0.013605486
00000000: 036f 853d 066d 16be b115 483b 7480 1c3e
00000010: 842a 41be fa10 a73d 6e0f 41be 37c7 1dbe
00000020: c3a4 463e d25f 02bd 8336 6e3d 5444 97bd
00000030: 35f7 b03d 56b4 fabd 4b1f 15bd a3c7 973b
00000040: 943f 87bd 3045 00be 4a6c 9ebd 58c2 26bc
00000050: 9e17 adbd a6c1 18be 6532 c43c 764e 233e
00000060: 09ed 6ebd 4ce3 a3bc bfcd 6fbd 7567 9cbd
00000070: e899 b33d defa 05be a39a adbd 89d7 c7bd
00000080: 62fc 223d 6101 09bd 8008 583d 380f eabc
00000090: a752 263c 206a e2bd 4e8b edbd e601 0b3d
000000a0: b45f a2bd 546d 163e 3383 56bd 8803 023e
000000b0: 4a0e 8bbd b8be 833d 8893 1cbe 4bab 18bc
000000c0: 9417 87bd 2330 153d 69f8 d93d f3bb 21be
000000d0: 81a5 30bd 6784 01be 2395 97bd d6e2 c5bd
000000e0: 0bd1 c13c 6ef5 323c e6af 5d3d 5266 e33a
000000f0: c629 0f3e 908c a53d 241a 25be 54b4 533d
00000100: 10b6 bbbd da73 b7bc e893 57bd 001b aebb
00000110: 8aff 4a3d cefb 2ebe d6dd 223d 716b 3c3d
00000120: 5421 893c 68c8 003e b5d4 493e b110 2cbe
00000130: 26bd 4c3e 796d 6b3b 8e9a d5bd 4344 3e3b
00000140: 4809 c83d 72e7 e53d 7dd1 293e 062f 883c
00000150: 0e47 79bc cb81 3f3b 790f 69bd bc3f 33bd
00000160: 8cad b2bd 5992 6f3d 1551 fcbc 3c26 a7bd
00000170: 582a 083e c144 f8bd 2456 b4bc b191 87bc
00000180: 79db c7bd 5620 80bd cb6f 0d3d b34c 00be
00000190: de91 98bd 9247 443c 3765 8a3d ff8f 68bc
000001a0: 45d3 67bb abee 073d f96d bb3d bc7c 9ebd
000001b0: 1308 b73d e122 da3c 45f3 92bd c78f 4a3c
000001c0: 5212 503d 5fa7 81bd c9a0 d83d 87e7 83bd
000001d0: 46ff 18be b074 fa3d 1c62 f9bd 7f0e bebd
000001e0: 438f 3fbd 2ff4 e3bd d6c7 283e 1348 4bbb
000001f0: c652 acbd 3e02 31bd 3493 13be ddac 1d3e
00000200: 83a1 cdbd 420f b4bd aa78 963c fdbe b23b
00000210: a06e 4ebc 814b d53b 3903 c13d 8ca5 3ebe
00000220: 9587 94bd e5c5 e53d 5ba2 9a3d 04c3 7aba
00000230: be71 883d 2228 303d 9661 063e eb68 0abe
00000240: 37a7 d8bd c337 bd3d b742 793d c8af 2dbe
00000250: 0749 5cbd de69 b13c b436 e83d 856f 933d
00000260: 285b 213e 9cb8 99bd 1466 9d3c 0b44 523d
00000270: 6fde 33be 8d39 543e 5ee2 253c de89 60bd
00000280: aae3 acbc b10e 1d3d 9f51 88b9 beb2 333e
00000290: 669d 833d 4ed2 6d3d bce6 b03d 404d dabb
000002a0: 6a69 033e ad38 1bbe 95dd 6abd 7031 fdbd
000002b0: ad50 c8bd 3b6d cbbd 7317 7a3d d8b4 9e3d
000002c0: 7341 153e 5f3f 583d d377 b7bc d0ab 913c
000002d0: b805 d9bd 952a 19bc a3b5 e23d 923b 8d3d
000002e0: 1e8c d8bd c1a0 56be 41a5 7dbc e2f6 123e
000002f0: b5e3 acbd 8f32 dab9 c4da b23d 5ed8 5e3e
00000300: 2929 2abe 7b4c 81bc 12b4 393e 2bfc 003e
00000310: 9043 4c3d d707 34be 69b3 323e 7726 e83c
00000320: 0022 f2bd 29ca 823b fc4e 0d3e b8c1 0ebe
00000330: ae75 cd3a 4cad 0d3e 5f38 5dbd ac3e 10be
00000340: de79 a63d f426 b4bd f583 073e 6c7b c33a
00000350: 0652 a33d 2762 f43d a2e3 2a3e 38ee c33d
00000360: 75aa 4abc 2837 003e 280d 86bc c036 98bd
00000370: 22d3 233e ffd0 613e e46c 703d 9c36 e9bd
00000380: 7447 9f3d 12b9 93bd 481f 563e 94f1 1fbe
00000390: 84a0 003e 158b a83d 3f16 af3d ad00 55be
000003a0: 8d5d 50bd b364 e43d 25f1 b23d 9804 38be
000003b0: 0c71 e4bc 2714 41be be1d d1bd ad9b 103e
000003c0: f409 273e e254 5e3d 05d1 08be 8de4 dd3d
000003d0: babc 3a3d a3b4 0e3e 7e84 24be eb73 f63d
000003e0: 733d ca3d c48b bbbd 3d73 133e 01dd 59bd
000003f0: 7bbc 69bd 3527 f2bd b097 15be 8be9 5ebc

gru.bias_ih_l1 f4 [96]
0.016928384 -0.112632796 -0.0675707 -0.08548624 0.16861214 0.073417805 -0.072517954 0.024914391
-0.0054586413 -0.010793356 0.20950171 0.12755664 -0.115047745 -0.04949748 -0.02997515 -0.10539184
0.10476252 -0.04600567 -0.06996454 -0.09247185 0.055103883 -0.11525692 -0.15973546 0.064109065
-0.07209758 -0.01479058 -0.1635166 -0.02460844 -0.043135088 -0.050525896 -0.093459144 -0.056527764
-0.004516924 0.1804853 0.15237929 -0.14129712 0.16688831 0.13108413 0.021313319 -0.08574306
-0.088069685 -0.030399134 -0.09058526 0.15055066 0.01214472 -0.043631308 -0.0032426626 -0.086437844
0.032237925 0.08726229 -0.09511314 0.06990882 -0.05568803 -0.09882829 0.101936266 -0.17250785
-0.07395432 -0.15245283 -0.07354133 0.12144373 -0.0024013468 0.021074692 0.06246326 -0.10718081
0.09750347 -0.076551415 -0.11298119 -0.041876025 -0.106583275 0.096538976 0.14967467 0.034702174
0.18722308 -0.10228797 0.1419618 -0.1438978 -0.014788017 0.08551355 -0.0040340484 -0.1577019
0.12915294 0.12504616 0.026191754 0.11508964 -0.15554824 -0.047660116 0.093558006 -0.012675926
0.19330871 -0.058605216 0.09860904 -0.091342755 -0.06676194 0.1451543 0.06564452 0.12066247
00000000: 65ad 8a3c 06ac e6bd 8262 8abd 6913 afbd
00000010: a9a8 2c3e 135c 963d 4b84 94bd 4419 cc3c
00000020: 67de b2bb 9ed6 30bc 9e87 563e 359e 023e
00000030: 279e ebbd dfbd 4abd 728e f5bc add7 d7bd
00000040: bb8d d63d 7170 3cbd 9249 8fbd e261 bdbd
00000050: 9cb4 613d d20b ecbd b191 23be 9d4b 833d
00000060: e5a7 93bd 3054 72bc e570 27be a497 c9bc
00000070: 6bae 30bd 3ef4 4ebd 8267 bfbd a889 67bd
00000080: b402 94bb 23d1 383e 5109 1c3e 31b0 10be
00000090: c5e4 2a3e eb3a 063e 4599 ae3c 0f9a afbd
000000a0: e15d b4bd 9b07 f9bc c484 b9bd f429 1a3e
000000b0: a6fa 463c beb6 32bd da82 54bb 5306 b1bd
000000c0: ea0b 043d 92b6 b23d aeca c2bd 5b2c 8f3d
000000d0: 2219 64bd 7d66 cabd f6c3 d03d e6a5 30be
000000e0: 5d75 97bd 981c 1cbe d69c 96bd 7eb7 f83d
000000f0: ea5f 1dbb d5a4 ac3c 7ad9 7f3d 9d81 dbbd
00000100: e6af c73d fdc6 9cbd af62 e7bd 3286 2bbd
00000110: 5548 dabd 3ab6 c53d 5144 193e de23 0e3d
00000120: 68b7 3f3e 5b7c d1bd 6f5e 113e f259 13be
00000130: 7049 72bc ba21 af3d 0d30 84bb 9b7c 21be
00000140: ab40 043e 1a0c 003e 1790 d63c 1eb4 eb3d
00000150: 0a48 1fbe 4137 43bd 579b bf3d b0ae 4fbc
00000160: b8f2 453e 060c 70bd 89f3 c93d e911 bbbd
00000170: 7cba 88bd 54a3 143e a270 863d e31d f73d

gru.bias_hh_l1 f4 [96]
0.09067765 -0.020233445 -0.06781199 0.05895458 0.027332557 -0.11781557 -0.027743237 0.11417993
-0.13642333 -0.088040985 -0.11656838 -0.04004056 -0.09491956 -0.12723148 0.018091924 0.17058536
-0.10714512 -0.007473667 -0.1095773 -0.113006465 0.08646919 0.071114436 0.066045575 0.11287416
-0.10697866 -0.12979007 0.03948402 -0.17389822 -0.10845476 -0.064039685 -0.053198796 -0.17973936
0.07014522 0.03373873 0.009936293 -0.11935912 0.020325812 -0.08911871 0.13760434 -0.063492246
0.061800826 0.087443 -0.059050925 -0.06917382 0.12557341 -0.043305006 0.08089413 0.09270788
0.150274 -0.1579068 0.076292336 -0.13245891 -0.17280498 -0.113184415 0.06416156 0.026931508
0.122272596 -0.04327988 0.12773578 0.11008257 0.16673242 0.057899486 -0.1377861 -0.020605916
-0.1874333 0.005077711 0.16983262 0.1053428 -0.09083233 -0.14596973 0.052138716 0.032050155
-0.15688708 0.09648995 -0.07554195 0.03625786 0.067481205 -0.07136091 0.0921975 -0.07896825
-0.059877235 -0.11529049 0.011390302 0.11302508 0.10511345 -0.04808321 0.114620246 0.19335765
-0.02218788 -0.07519032 -0.06428419 -0.15158586 0.007930088 0.04293594 0.11431757 0.049323
00000000: 34b5 b93d 9cc0 a5bc 03e1 8abd 5c7a 713d
00000010: 87e8 df3c 4a49 f1bd c945 e3bc 2bd7 e93d
00000020: 8fb2 0bbe d54e b4bd 67bb eebd 9201 24bd
00000030: 3065 c2bd f848 02be 8435 943c eead 2e3e
00000040: e76e dbbd aae5 f4bb 106a e0bd ef6f e7bd
00000050: c216 b13d 72a4 913d e742 873d 912a e73d
00000060: a117 dbbd b0e7 04be ffb9 213d 6012 32be
00000070: 871d debd 3d27 83bd fbe6 59bd 980d 38be
00000080: 4ca8 8f3d 9f31 0a3d d5cb 223c 8e72 f4bd
00000090: 5182 a63c df83 b6bd 27e8 0c3e 3908 82bd
000000a0: dd22 7d3d 5115 b33d 62df 71bd 01ab 8dbd
000000b0: 5196 003e 9760 31bd d2ab a53d a1dd bd3d
000000c0: 6de1 193e 52b2 21be 283f 9c3d 4fa3 07be
000000d0: caf3 30be 3bcd e7bd 2367 833d 779f dc3c
000000e0: 0e6a fa3d 3e46 31bd 2bcd 023e f872 e13d
000000f0: e7bb 2a3e 0328 6d3d cd17 0dbe bdcd a8bc
00000100: 84ee 3fbe ed62 a63b 9ae8 2d3e f7bd d73d
00000110: 4d06 babd 1779 15be 688f 553d 0647 033d
00000120: 02a7 20be 869c c53d bdb5 9abd 1f83 143d
00000130: 9633 8a3d ab25 92bd 0bd2 bc3d 1bba a1bd
00000140: d541 75bd 6c1d ecbd 649e 3a3c b179 e73d
00000150: b845 d73d e6f2 44bd 05be ea3d 8cff 453e
00000160: 5bc3 b5bc 62fd 99bd 6ea7 83bd 5339 1bbe
00000170: 33ed 013c 99dd 2f3d 551f ea3d ea06 4a3d

fc.weight f4 [5, 32]
-0.03819606 0.1678145 -0.018923365 -0.10814056 -0.00017277052 0.13090946 0.13852678 0.12636918
-0.05274807 0.11378669 0.097200714 -0.102097645 -0.20107497 -0.08196601 -0.086337276 0.19453286
0.17767677 0.06709215 -0.12008173 0.09133837 0.05357578 -0.101181015 -0.12085775 -0.18352875
-0.14309192 -0.06589176 -0.13426761 -0.12686539 -0.015596161 -0.08627803 -0.046949588 -0.2040894
-0.1630829 -0.09749054 -0.039349012 0.13237287 0.18095985 -0.16207643 -0.113545954 0.19418336
-0.19643827 -0.090084694 -0.07982756 0.19098169 0.005393947 -0.029002273 0.04842653 -0.16653612
0.16532154 0.20439963 0.028857501 -0.012954721 -0.010461152 -0.06367529 0.036086183 0.19705467
0.18447663 -0.07755576 0.090899035 -0.036736097 0.19965464 -0.14209545 -0.14413936 0.08413178
-0.08833367 -0.10893603 0.02675396 0.14064902 -0.007393306 0.029515723 -0.002424355 0.10823687
0.054311015 0.036176946 -0.09757356 0.09218541 -0.14804299 0.0649892 0.18611829 0.087095805
0.036011156 -0.116116695 -0.12973365 0.034822624 -0.18628651 0.14191283 0.20516561 0.15595081
0.12704024 0.081692554 0.066004515 -0.12500854 0.091834694 -0.030933082 -0.07860633 -0.08100909
-0.1605513 0.06606083 0.08554619 -0.11758917 -0.087548055 -0.005601529 0.20004621 -0.06842804
0.051070377 -0.2113254 0.20797712 -0.17869037 0.14271507 -0.14786944 -0.03394453 0.122353785
0.12811662 -0.056288425 0.10880332 0.040240105 -0.049303684 -0.19294825 0.054479443 0.14994994
0.10911496 -0.080046155 0.19518183 0.052268464 0.14521542 0.07776977 0.066679694 0.09238743
-0.17666484 -0.024354985 -0.1878069 -0.0755421 0.16417864 -0.043193854 -0.13497958 0.21188125
-0.14032578 0.011796956 -0.04706077 0.17821339 0.13836737 0.13005361 -0.037998445 -0.11947721
-0.08096947 0.11579574 -0.08340883 -0.1861413 -0.0761329 -0.18017633 0.14281198 -0.15394177
-0.12692738 -0.21571606 0.060751516 -0.06732802 0.06723604 -0.0366099 0.16973633 0.11847805
00000000: 7973 1cbd 90d7 2b3e 2c05 9bbc cc78 ddbd
00000010: bc29 35b9 210d 063e f7d9 0d3e ec66 013e
00000020: 5c0e 58bd ff08 e93d 2b11 c73d 9218 d1bd
00000030: 99e6 4dbe ccdd a7bd 99d1 b0bd 9f33 473e
00000040: e6f0 353e 9c67 893d 69ed f5bd 9d0f bb3d
00000050: 4772 5b3d fe37 cfbd 4584 f7bd f6ee 3bbe
00000060: b086 12be 42f2 86bd 737d 09be 00e9 01be
00000070: 0a87 7fbc 89b2 b0bd 364e 40bd d0fc 50be
00000080: 34ff 26be 1fa9 c7bd 6e2c 21bd c18c 073e
00000090: 8a4d 393e 5df7 25be c88a e8bd 01d8 463e
000000a0: 1d27 49be 537e b8bd a27c a3bd b490 433e
000000b0: b5bf b03b 2d96 edbc e65a 463d 7288 2abe
000000c0: 0d4a 293e 234e 513e 9166 ec3c 0a40 54bc
000000d0: 4065 2bbc 3168 82bd 1bcf 133d b3c8 493e
000000e0: 71e7 3c3e 8ed5 9ebd 4629 ba3d 9778 16bd
000000f0: 4472 4c3e 7881 11be 4599 13be 484d ac3d
00000100: 48e8 b4bd da19 dfbd 1f2b db3c 4c06 103e
00000110: 8c43 f2bb f5ca f13c ede1 1ebb 4bab dd3d
00000120: 3a75 5e3d 472e 143d a6d4 c7bd b4cb bc3d
00000130: 9598 17be 0f19 853d cb95 3e3e 495f b23d
00000140: 6f80 133d 97ce edbd e6d8 04be 2ba2 0e3d
00000150: e4c1 3ebe 9951 113e ef16 523e 92b1 1f3e
00000160: d616 023e 6d4e a73d 602d 873d 3d02 00be
00000170: d413 bc3d 6067 fdbc 5bfc a0bd 18e8 a5bd
00000180: 8f67 24be e74a 873d d732 af3d 97d2 f0bd
00000190: 654c b3bd 088d b7bb ead8 4c3e 0024 8cbd
000001a0: 2c2f 513d b065 58be f4f7 543e 9cfa 36be
000001b0: e623 123e 166b 17be 6b09 0bbd 9f94 fa3d
000001c0: 0131 033e b18e 66bd 46d4 de3d cfd2 243d
000001d0: a9f2 49bd 3a94 45be d625 5f3d 7a8c 193e
000001e0: aa77 df3d 3def a3bd bfdd 473e 7517 563d
000001f0: 5ab3 143e c245 9f3d 5d8f 883d 9f35 bd3d
00000200: a1e7 34be 1b84 c7bc 7450 40be d1b5 9abd
00000210: 721e 283e 0aec 30bd 1638 0abe 66f7 583e
00000220: 90b1 0fbe 0548 413c cbc2 40bd 927d 363e
00000230: 2db0 0d3e c62c 053e 42a4 1bbd 78b0 f4bd
00000240: 52d3 a5bd 5126 ed3d 40d2 aabd d39b 3ebe
00000250: 91eb 9bbd 2580 38be 4e3d 123e e9a2 1dbe
00000260: 40f9 01be ace4 5cbe 95d6 783d 46e3 89bd
00000270: 0db3 893d 43f4 15bd 5ccf 2d3e 9fa4 f23d

fc.bias f4 [5]
-0.1465347 -0.038947932 0.03832263 0.17981626 0.1029433
00000000: 310d 16be de87 1fbd 31f8 1c3d c121 383e
00000010: f0d3 d23d
